insurance_artifacts/models/insurance_fraud_hybrid_quantum.pt (torch, 17841 bytes, 12 tensors)

fc1.weight f4 [64, 37]
00000000: 95d5 823d aa1e 11be 913f 08be 363d d53c
00000010: 6b6d 79bd 4baa c03d 5e43 83bc 9a8a f93d
00000020: 4eb5 56bd 3c70 83bd 63cd 2133 b507 d23c
00000030: 2d5b bbbd 8c5b 113c 3c6f 22be 60f3 333d
00000040: 6c50 f8bd d374 073e 06b2 7e3d 1f39 c53d
00000050: 6f33 26bd dc11 0a3b b48c 133d 2cea a4bd
00000060: 9a52 0c3e 2c09 debc e6a9 983d b3ea d2bb
00000070: ccc1 7f3c 6e6f 96bd 19df 4abc 6d9f 3e3d
00000080: c82f c33c 540e a93d 2bf8 b9bd b27a a2bb
00000090: 07cf 4cbd db22 1fbd a641 133e aa77 9cbd
000000a0: 27f3 3f3e d2d8 00be d0d2 463e 60c0 a6bd
000000b0: 3526 a9bc 1827 233e 126b be3d a0a5 d4ba
000000c0: 75e4 753d 636d 82bd 7eef e13b 41e1 0abb
000000d0: bdc9 62bd 3f60 283e cc95 1ebe 6bfb f33a
000000e0: 6659 93bd a27a 93bd 5a65 d5bc 351b d9bd
000000f0: aac3 dcbd a20e 90bd 7575 74bc 9d46 cfbd
00000100: 9d44 0f3c a749 a53d b881 973c 8df0 7c3d
00000110: 22b2 b931 d2a3 4fbd 5a5b 143d 9387 66bd
00000120: a0b7 7bbd a739 bd3d 6947 bc3d 4204 57bb
00000130: ddaf 913d 20d9 323d f005 2fbb a505 84bd
00000140: 3f83 033d 06ce f53d cd2b f83d c3d3 ccbd
00000150: 209b 9eb3 30df c13b 8e8e b9bd 9afd 593b
00000160: e580 503d db23 c8bd 6149 9eba d654 1b3e
00000170: e375 f7bd e524 19be 2140 e4bd b364 00be
00000180: 28b4 a6bd fe46 a3bb fcbb 77bd ba7f 11bd
00000190: 3824 aebd 42da b13c 2139 f9bd 29d2 e63d
000001a0: b7f6 9b3d 1254 903d 7f65 06be 8ba2 01be
000001b0: a0a8 103d 33ce d2bd 6345 1139 653e 8ebd
000001c0: 0ef8 dabd 01ef cf3d b2a0 0b3e e61b b8bd
000001d0: 3ff9 81bc 283a a13d 5c83 8dbd 2ea3 d73d
000001e0: 3285 003e 0e5f f33c cb73 983d a77c 863d
000001f0: 8f81 3235 da2c 19bb 1e5f 7d3d 4f15 90bd
00000200: 9796 c7bc 98c6 c3bd 244a 5cbd 623e 9abc
00000210: d695 b13d 71d1 523c 54b2 b53d 483e bebc
00000220: 45f8 cdbd df88 013c 2285 fc3d 13e2 9abd
00000230: 0bfe c73d a648 dfbd f630 8cbc 6c12 5a3e
00000240: e993 e93d 5588 fd3d d08c d13b 02a3 9c3d
00000250: d6b2 f3bd 81c2 d1bb b9d9 e53c 20dd d5ba
00000260: 4ee6 9fbd 1ec7 0bbd dbd3 5abd b869 37be
00000270: 5b23 c3bd 42a3 4cbd 3113 2133 f05a 1bbd
00000280: 6f52 b338 bb82 5abd 727d c73d 89d4 d2bd
00000290: deb2 abbc 3859 f1bd 097c c7bd 64ca 793d
000002a0: 0438 a3bd 7ee5 883d d76f fa3d 84c0 cbbd
000002b0: 4131 2fbd 59ca 373d 75cd 18be 0825 57bd
000002c0: 3129 e0bc 367e f0bd 71be dbbd 678b d4ba
000002d0: 3270 203d d397 f33d 767b ef3d e068 03be
000002e0: bbe3 87bd d5f9 09bd b0fe 99bd 0fd8 98bd
000002f0: 133f dbbd e467 5bbd d304 ba3d 275e 62bd
00000300: af83 fdbd 02c7 8b3d bf6a ab3d b51c bdbd
00000310: 46cf b53c e86b 89bd f1f1 59bd b4fc d8bb
00000320: fdc7 1dbe 1dda ca3d 7eca c53d b98c 09be
00000330: fb76 e8bc c5e2 2a3d 62f5 5dbd c0d4 623d
00000340: 4718 d4bd 5d05 9e3d 471c e5bd bc84 93bd
00000350: 91a5 5d3d 412e dc3d 98a1 513c 343f 813d
00000360: 20da 06b3 2524 273e 93ae 283e e4f8 cabd
00000370: 7d1e 1f3e 4adb 0236 217a 9d3d 96a5 8ebd
00000380: 6017 8c3c f557 3abd 28e4 7d3b ff64 febd
00000390: d92f 12bd ac50 15be 9c36 e7bd 6011 253d
000003a0: aa3e b9bc c08a 93b3 6b30 3ebc 91d1 fcbc
000003b0: 1d44 24bc d934 fabd 3067 efbd b591 9e3d
000003c0: a5c7 c3bd 1cc9 073e 6f5d d23d bfe6 c93d
000003d0: 03ff 38bd 7cf0 303c 7fc1 843d 48d1 e03d
000003e0: ad6c e93d 3051 103e 4b35 d03d f2d7 273d
000003f0: 0731 40bd 4216 cb31 4057 97bd 5d58 8f3d
0.06388394 -0.14171854 -0.13305499 0.026030164 -0.060895365 0.09407481 -0.016023334 0.12184639
-0.052419 -0.064178914 3.767253e-08 0.02563844 -0.0914825 0.008871924 -0.15862745 0.043933272
-0.12124714 0.13228159 0.062181495 0.096300356 -0.040576395 0.0021067774 0.036022857 -0.08052477
0.13703385 -0.027103983 0.074542806 -0.0064366697 0.01561017 -0.07345472 -0.012382292 0.04653876
0.023826495 0.08254686 -0.090805374 -0.004958474 -0.050002124 -0.0388516 0.14380512 -0.076400116
0.18745099 -0.1258271 0.19416356 -0.08142161 -0.020648101 0.15932882 0.09297766 -0.0016223677
0.060032327 -0.0636852 0.006895005 -0.002119139 -0.055368174 0.16442965 -0.1548683 0.0018614357
-0.07194786 -0.07201125 -0.026049305 -0.106008925 -0.107795075 -0.07034041 -0.014920582 -0.1012089
0.008744386 0.08070689 0.018494472 0.061752845 5.40446e-09 -0.05069334 0.036219932 -0.056281637
-0.061454415 0.09239512 0.09193308 -0.0032808934 0.071136214 0.043664098 -0.002670642 -0.06446389
0.032107588 0.120021865 0.12117729 -0.10001328 -7.3856654e-08 0.0059164986 -0.09060393 0.003326273
0.050904173 -0.09772464 -0.0012076312 0.15169081 -0.12083032 -0.1495548 -0.11145044 -0.12538414
-0.08139831 -0.004982828 -0.06048201 -0.0355222 -0.08503002 0.021710519 -0.121690996 0.112705536
0.076154165 0.07047285 -0.13124655 -0.12659661 0.035317063 -0.10293236 0.00013854126 -0.069454946
-0.10691844 0.10153008 0.13635519 -0.08989696 -0.01586592 0.078724205 -0.069098204 0.10529171
0.1255081 0.029708412 0.07443961 0.06566744 6.64987e-07 -0.002337268 0.06185829 -0.07035314
-0.024363799 -0.09559363 -0.053781644 -0.018828575 0.08671157 0.012867318 0.08871904 -0.023223057
-0.10057119 0.007906168 0.123300806 -0.075626515 0.09765252 -0.109025285 -0.01711319 0.2129609
0.11405165 0.12379519 0.00639496 0.07648279 -0.118993446 -0.0064013605 0.02805792 -0.0016316511
-0.07807599 -0.03412544 -0.053424697 -0.17911422 -0.09528228 -0.049960382 3.7503188e-08 -0.03792852
8.5507396e-05 -0.05334733 0.09740724 -0.10294444 -0.020959314 -0.11784595 -0.09740455 0.06098403
-0.079696685 0.06684397 0.12228363 -0.09948829 -0.04277158 0.04487071 -0.14922126 -0.05252555
-0.027363392 -0.11742823 -0.10729683 -0.0016215862 0.039169498 0.118941925 0.1169347 -0.12832975
-0.06635233 -0.033685524 -0.07519281 -0.07463085 -0.1070539 -0.053565875 0.090829514 -0.055265572
-0.12378632 0.06825067 0.083699696 -0.09233991 0.022193562 -0.067100346 -0.05320925 -0.0066219214
-0.1540832 0.09904883 0.09657763 -0.13432588 -0.028377047 0.04172017 -0.054189093 0.055378675
-0.10356193 0.07715867 -0.11187034 -0.072030514 0.054112975 0.1075101 0.012794875 0.06310883
-3.139769e-08 0.16322382 0.16472845 -0.09910753 0.15538974 1.9499153e-06 0.0768931 -0.06965177
0.01710099 -0.04549404 0.0038740728 -0.12421607 -0.035690162 -0.14581555 -0.11289713 0.040299773
-0.022612888 -6.8704594e-08 -0.011608223 -0.030861648 -0.010026005 -0.12217111 -0.11689603 0.07742635
-0.095595635 0.13260311 0.10271727 0.098584644 -0.045165073 0.010799523 0.06482219 0.10977417
0.113976814 0.1409347 0.10166415 0.040977426 -0.046921756 5.910608e-09 -0.073896885 0.06999276

fc1.bias f4 [64]
00000000: 2b9d 8bbd 3438 d63c d600 48bd be58 b7bc
00000010: 88c4 82bd 5db6 923d e175 9cbc f76a b93b
00000020: 69b6 893d 0cfb a8bc d084 013b 695b 3bbc
00000030: 54c4 843d 90f7 95bd a6a3 273d fae5 84bd
00000040: 14fc 9a38 c942 f1bc c1d8 073d 5cc7 1437
00000050: aa46 0eb9 3f63 873d 7fbc 7cbd 902e 44b4
00000060: a3be 8d3b 2cf2 36b3 4d90 34bd fe2c a03c
00000070: 5d79 cf32 3f1b 9635 bcea bb3d 64cb 2dbd
00000080: e118 583d 775e 1437 5a09 413c a743 42b4
00000090: 5fba 773d a338 cd3a a266 bbbc 1600 75bc
000000a0: 3f61 c53d 4074 873d bbd5 88bc dab5 993a
000000b0: bc37 60bd 0b14 3c3d 92a9 0633 b8e4 02b5
000000c0: ec3e 313b 9624 8f3c 1a16 9ab2 938d 17bd
000000d0: aa19 af3d 8162 1433 fd2a ce38 677d 1cbd
000000e0: 758d 3b3c 881d ea3c 6b71 a73d bad7 843d
000000f0: bcf2 83bc b100 6433 10b9 92bd 610c a4bd
-0.06817087 0.026149847 -0.048828922 -0.022381183 -0.063851416 0.07163689 -0.019099178 0.005658503
0.06724245 -0.020627521 0.0019763 -0.011435368 0.06482759 -0.073226094 0.04092755 -0.06489177
7.3902454e-05 -0.029450791 0.033165697 8.867904e-06 -0.000135685 0.066107266 -0.0617032 -1.8270862e-07
0.004325704 -4.259543e-08 -0.04408293 0.019552704 2.4153161e-08 1.11838e-06 0.091756314 -0.042430297
0.0527581 8.843482e-06 0.011782015 -1.809227e-07 0.06048047 0.0015657138 -0.022876088 -0.014953634
0.09637689 0.0661397 -0.016703477 0.001172717 -0.054740652 0.045917552 3.135353e-08 -4.8761603e-07
0.002704556 0.0174735 -1.793801e-08 -0.03700025 0.08549817 3.4548524e-08 9.830853e-05 -0.03820553
0.0114473 0.028578535 0.0817593 0.06486459 -0.016106956 5.3086016e-08 -0.07164204 -0.080101736

bn1.weight f4 [64]
00000000: 519e 763f dced 803f 52ea 713f fbef 843f
00000010: a8a7 773f 23a6 863f e39f 753f d776 723f
00000020: 5eaa 833f 8c17 893f 0698 753f e1ac 853f
00000030: 203b 7b3f 97cf 863f 38eb 703f 3c4e 863f
00000040: b7e7 773f 82a5 723f cafe 813f 9a26 883f
00000050: 5b3e 7b3f 6075 773f a17d 803f dbcb 7c3f
00000060: c9c1 833f 76b3 7e3f a55e 703f 926e 733f
00000070: 7f1d 853f 2e53 763f a066 853f 79da 783f
00000080: 02fb 7b3f 4596 7f3f b202 743f fa03 823f
00000090: ec0a 843f ceab 7a3f 3929 833f d224 813f
000000a0: f0c5 763f 4782 803f 241c 703f 4637 703f
000000b0: cccc 7b3f c53d 723f 9eb5 763f 6c93 823f
000000c0: 89b7 733f bbb3 873f 7977 843f 1fb6 803f
000000d0: 5a34 713f ffb5 743f e70c 773f 379b 843f
000000e0: f996 7f3f 1480 833f 19ca 833f 15db 833f
000000f0: 15dc 723f 182a 753f 189d 713f 7f94 7b3f
0.9633532 1.0072589 0.9449817 1.0385736 0.967402 1.0519451 0.9594709 0.94712585
1.0286367 1.0710311 0.95935094 1.0443383 0.9813709 1.0532101 0.94108915 1.0492625
0.96837944 0.94783795 1.015588 1.063678 0.9814202 0.96663475 1.0038339 0.9874856
1.0293514 0.99492586 0.93894416 0.9509059 1.0399626 0.9622067 1.0421944 0.9720836
0.9842988 0.9983867 0.9531661 1.0157464 1.0315833 0.97918403 1.0246955 1.0089362
0.9639578 1.0039757 0.9379294 0.9383434 0.9835937 0.946255 0.96370876 1.020124
0.9520193 1.0601724 1.034896 1.0055579 0.9422051 0.95590204 0.9650406 1.0359868
0.9983974 1.0273461 1.029605 1.0301234 0.9486707 0.95767355 0.9438033 0.9827346

bn1.bias f4 [64]
00000000: 1e6f 9f3c 12f2 863d 3553 a9bc 8e75 953d
00000010: 0659 b93c 72de 953d 29de 14bd 64db 5cbd
00000020: 9bbd 453d 1a17 a03d 8137 69bc 5c1a 923d
00000030: e16f 213d b4a8 903d 223a 5ebd 979f 803d
00000040: afd7 b13b 27d5 24bd e2c9 183d f856 8b3d
00000050: 98a4 b73c ef6e 423c 72c0 7f3d f5dd 013c
00000060: 0c01 913d db8e 6d3d f6ff 28bc d0c8 d83c
00000070: 871d 6a3d bc73 5ebc 5556 823d 974d 4f3d
00000080: 16e3 243d 6b62 563d 6ef7 703d b6a5 823d
00000090: 41ae a13d 787a 013d cc99 823d fe0d 0d3d
000000a0: c360 1d3b d3bd a83d 5b05 2dbd 09c5 23bd
000000b0: 00ec 7a3d 37d3 29bd c523 04bd d71b 913d
000000c0: 97b6 aebc 8b8a 8f3d e8a2 803d 6dda 813d
000000d0: 08b3 39bc b887 01bd 372e 5aba 0389 973d
000000e0: eda7 903d bdd7 4a3d cfd6 6a3d af78 a03d
000000f0: cb32 42bd 5e12 f9bc fe10 4cbd 4742 733b
0.019462164 0.0658914 -0.020669559 0.072978124 0.022625457 0.07317819 -0.03634468 -0.053920165
0.048276525 0.07816906 -0.014234425 0.07133934 0.039413337 0.070634276 -0.05425466 0.06280439
0.005427323 -0.04024234 0.037301905 0.06803697 0.022417352 0.011867269 0.06243939 0.007926454
0.07080278 0.057997566 -0.010314932 0.026462942 0.057157066 -0.013577398 0.06364123 0.050611105
0.04025563 0.052339952 0.058829717 0.06379263 0.078945644 0.031610936 0.06376991 0.034437172
0.0024013973 0.08239331 -0.042241435 -0.03998283 0.061260223 -0.041461196 -0.032260675 0.07085388
-0.0213273 0.07008847 0.06281072 0.063404895 -0.011334188 -0.031623572 -0.00083229266 0.0739918
0.07063279 0.04952215 0.057333764 0.078355186 -0.04741172 -0.030404266 -0.049820893 0.0037118362

bn1.running_mean f4 [64]
00000000: 8b71 8cbe 54c8 ea3c 4c3f f7be 5bd8 103f
00000010: c855 91be 68ed 0d3f f509 93bd 6a7f 84be
00000020: f9c1 cd3e 06be f83e d9d7 9a3c 4c1a 2b3f
00000030: ad94 0f3e 89ea 9a3e 44d4 2bbe 3bce e33e
00000040: db28 a13b f0a7 1cbf 577d 8e3f 32bc 8c3e
00000050: c6be ad3e e223 6ebe 4b59 bc3e f047 7f3e
00000060: d291 103f fb47 e23e 8ecd c1be 594e 51be
00000070: 7fc6 283f c5b7 0d3f 8380 f53e b3e0 1cbf
00000080: c0b5 103f b7e6 283f 3f65 97be 5624 963d
00000090: 171a cd3e 7769 143e 57b1 f43e 325e aa3e
000000a0: 2c4f fdbe 4737 a03e 7cb4 acbe 38ea aebe
000000b0: cf0d c33e 95f7 233d 9596 a13c 841c d93e
000000c0: 9897 8abe 4777 1a3f 872a 963e f02e 983e
000000d0: be49 0bbf ed1a 08be 6c09 d6be bdc1 3d3e
000000e0: 7397 7e3e 6b4e f63e 5c61 a13e c0a1 313f
000000f0: 5253 bbbd ba95 0bbf 53d8 3bbe 7f2c 593e
-0.27430376 0.028659977 -0.4829048 0.5658013 -0.28385758 0.5544038 -0.071796335 -0.2587846
0.40187052 0.48582476 0.018901752 0.66837 0.14021559 0.3025706 -0.16780192 0.4449328
0.0049182004 -0.6119375 1.1132001 0.27487332 0.3393461 -0.23255876 0.36786875 0.24929786
0.56472504 0.44195542 -0.37852138 -0.20440044 0.6592788 0.55358535 0.4794961 -0.61280364
0.5652733 0.6597704 -0.29569432 0.07331149 0.40058967 0.14493357 0.4779155 0.3327499
-0.49474466 0.31292173 -0.3373145 -0.3416307 0.38096473 0.040031034 0.019725123 0.42404568
-0.27068782 0.6033825 0.2932932 0.2972331 -0.54409397 -0.13291521 -0.41804063 0.18530937
0.24862461 0.48106703 0.31519592 0.69387436 -0.091467515 -0.5452534 -0.1834424 0.2120838

bn1.running_var f4 [64]
00000000: cc5b be3f ff9b 2f3f 71a0 513f eaba 853f
00000010: fb9a ca3f 75a2 033f fb61 5b3f 7101 1c3f
00000020: dac7 a63e afdb 043f dfd0 e13e 7f7e 633f
00000030: 6af9 e83f 3d37 ad3e 6faf dc3e 5220 0e3f
00000040: ffa8 c63e 2fe3 a23f d7a1 8a40 c126 a83e
00000050: 2fd4 9d3f 1eca 363f d90c e93e 2d61 473f
00000060: a0e7 273f 990d 1f40 92cc f93e 4a55 313f
00000070: 4e43 a43f b35a ab3f 087c b23e 5731 243f
00000080: 9c00 c13f 60ba a53f a952 ab3e e5f3 de3e
00000090: 6db5 dd3e e9fe 2c3f 2ade 5b3f 7718 b83e
000000a0: b9d6 543f 7c20 243e cc5b 193f 69d5 133f
000000b0: 4b91 943f c861 323f 2f0b ca3e 0aa7 d83e
000000c0: 60fe 133f 4b2b 493f 840d 603e c59f 1b3f
000000d0: 3ede 733f f50b 4f3f 06e0 3c3f adda b83e
000000e0: 6f40 803e 3f5c 043f d9b0 a33e fed4 3d3f
000000f0: 658e 4a3f 04e7 663f aa6b 873e e8c0 d13e
1.4871764 0.68597406 0.8188544 1.0447667 1.5828546 0.51419765 0.8569638 0.609397
0.3257435 0.5189771 0.44104668 0.8886489 1.8201115 0.33831206 0.43102595 0.55518067
0.3880081 1.2725581 4.332256 0.32842067 1.2330378 0.71402156 0.45517614 0.77882653
0.65587807 2.485205 0.48788887 0.69270766 1.283304 1.3387054 0.34860253 0.64137787
1.5078311 1.2947502 0.33461502 0.43545452 0.4330248 0.6757646 0.8588587 0.35956165
0.8314014 0.16028017 0.59905696 0.57747513 1.160684 0.6968045 0.39461657 0.4231494
0.5781002 0.78581685 0.21880156 0.60790664 0.9526099 0.8087762 0.7377933 0.36104336
0.2504916 0.51703256 0.31970862 0.74153125 0.79123527 0.9019625 0.2644933 0.40967488

fc2.weight f4 [6, 64]
00000000: 288b 74bd b464 8cbd 1042 953c a1ed ffbc
00000010: 2458 b33c 1114 eebd 8487 77bc 6cba c13d
00000020: 3df1 07be 60d5 29bd 1922 fbbd 59bf f0bd
00000030: 1134 bebd dacc 5d3c f27a 873d 11b2 bf3d
00000040: c15a ccbb 089a a33c 1eff fbbd 5646 093c
00000050: dda3 b7bd 42f5 dc3d c326 913d 1b5a 15bc
00000060: 1e22 e9bd 5d94 cfbc e8b0 813d 1751 dfbd
00000070: 886b 7fbd 28ee c83d 027f a53c e442 133d
00000080: 0dde d63d a151 b6bd 5bda 07be 9e16 d63c
00000090: c826 be3c 64d5 c3bd 1aee d93d 88fd 97bd
000000a0: d06b d6bd 94be 18bd 8be8 f9bd 624f 17ba
000000b0: 3c13 89bd 3757 0fbc 6819 95bd 1aa3 7f3d
000000c0: 47d9 0c3d 5538 7a3d 2510 953d 7e43 85bd
000000d0: a26a 7e3c 9b88 843d 7fac c23c ca0c dcbb
000000e0: 2e85 20bd 66cd ca3d 85a7 823c fa7a 1abd
000000f0: f8f4 c7bd ddbf 7c3d a31d d63d e278 4ebd
00000100: 7731 b9bd 5728 86bd fe89 30bd 5124 cdbb
00000110: 6cc2 bd3d 5f5a a33d f106 dfbd 61df dfbb
00000120: 5265 af3d 9e35 c4bd d42a d2bd 210c 09be
00000130: a318 d73c ef54 b3bd aeb0 b83c 38e7 00be
00000140: 2141 9cbd 4416 a83d c482 72bd 7047 8cbd
00000150: c1fd a23d 2dce e7bc bbbc b0bd e310 54bd
00000160: ea09 8cbc 3a26 c53d 7c43 17bd 2f3c 25bc
00000170: fd62 0fbe 4798 55bd e0ce cd3d 16c5 ab3d
00000180: d1e8 20bd ce92 1f3d 204d 83bc bf8d d93d
00000190: c351 213d 9531 04ba 9e84 8dbd 154d f8bd
000001a0: 3eca 373d 313a cc3c 0da3 b73b b9fc 963c
000001b0: df71 473c 1e6f 853d 38b7 b03d bf42 7b3b
000001c0: 1e3f 06be d98e e8bd 0ce6 893d e826 d73d
000001d0: 8b96 5cbd 09f3 6bbd 7f9e 9a3d 8a59 d7bd
000001e0: 6971 9bbd cfc8 e0bd 843a a63d 048d 35bd
000001f0: 2a7d 18bd 85f1 5c3d 1a71 fdbc 28f1 cabd
00000200: 5f86 ab3d 5f69 ba3d 9694 ac3d 17e1 a9bd
00000210: 3e73 8a3c 89c2 083d fee9 d03b 7a60 473d
00000220: ede2 0dbe 86dc 08bd b9e9 d4b9 52c7 b9bb
00000230: 9ad9 adbd 2a8a f1bc 2091 b2bd dce6 a6bd
00000240: cb77 413d 152b a73d 03ab 13bd f78a 25be
00000250: e52d 1dbc 5ef8 833d 453e 083c 80c1 d4bd
00000260: 85ec 81bd 3193 9cbd 123e 403c 1b27 973b
00000270: b41d c2bd c989 a93d b41e 02ba b31b 3b3e
00000280: 48bd 07be 9138 2bbd cb49 9b3d 4294 0abd
00000290: 38c8 61bd 583a b6bd c5d1 83bd 6657 183d
000002a0: db9d 1e3e 65a7 bdbd 07d7 4abd 203a 393d
000002b0: 803c 3dbd 804d acbd 7a24 1ebc eb7b 823d
000002c0: cd33 a4bc a9c2 933d 733a dbbd cb3b b63c
000002d0: 7cb5 e2bb b581 c93d 8df7 e23d 0143 9b3d
000002e0: 2c9c 163d 43c7 12be cadb 9fbd 3100 9ebd
000002f0: 951f 7c3d 1e57 eb3d d5bb 7bbd bc03 ffbc
00000300: 04fb 27bd ce36 17be 7447 b0bd c13b f83c
00000310: acc1 a13d 5c0c 46bd a4b8 babb 8cf5 e9bd
00000320: e94d 7ebd 9e42 c43a 493a 953c 6b5a 443d
00000330: 5f58 c7bd 4843 813b b427 87bd 6b1b 0bbd
00000340: fc9a a9bd eb02 983a 0de1 99bc 13ab e53c
00000350: f07b ca3d 4598 973d c787 33bd 3c95 b9bd
00000360: 5d03 903d 90a4 92bd 00a4 48bc 1e31 a83c
00000370: f381 e5bd 26ee a53d 9ec6 8fbd 839e 0dbe
00000380: 5cdd d3bb 3ff2 ce3d 389d 1cbd 6ed6 cebc
00000390: c38b 0abe 8bcc 04be 590f adbd 9b1b 8dbc
000003a0: f57c 9b3d 9986 f4bb 5b5a c83c ace2 843d
000003b0: 6c90 8f3d 054a cd3d ee71 8d3d 5b13 06be
000003c0: 12f6 a3bc 587b c4bd de78 a1bc 48f4 bfbd
000003d0: ef22 0bbd e5c8 223d eb67 e53c 5da6 bfbd
000003e0: a9f2 3bbc 7250 943d 0b41 bc3d d7fe cc3c
000003f0: 98c6 513d 8507 913d 26a0 1ebd 1db3 02be
-0.059703022 -0.06855145 0.018219978 -0.03124124 0.021892615 -0.11624921 -0.015107993 0.09459385
-0.13275619 -0.041463256 -0.12262363 -0.11755247 -0.09287275 0.01353761 0.06615247 0.09360135
-0.0062364046 0.019970909 -0.12304519 0.008378586 -0.08966801 0.10788967 0.07087471 -0.009115721
-0.113834605 -0.0253393 0.0633257 -0.109041385 -0.06235841 0.0981105 0.020202164 0.035952464
0.104915716 -0.08902288 -0.1326689 0.026133832 0.023211852 -0.095621854 0.106411174 -0.07421404
-0.10469782 -0.037291124 -0.12202557 -0.0005772022 -0.06693122 -0.008748821 -0.072802365 0.062411405
0.0343869 0.06108888 0.0727847 -0.06507014 0.015528353 0.06471368 0.023763893 -0.0067153918
-0.03918951 0.09902458 0.01594902 -0.037714936 -0.09763521 0.061706413 0.104548715 -0.05040825
-0.09042638 -0.06550663 -0.04310035 -0.006260433 0.09265599 0.07976221 -0.10889996 -0.0068320488
0.08564247 -0.09580539 -0.10262075 -0.13383533 0.026256865 -0.08756434 0.022545185 -0.12588203
-0.0762961 0.08207372 -0.05920674 -0.06849563 0.07958556 -0.028296554 -0.086297475 -0.051773917
-0.017094571 0.09626432 -0.036929592 -0.01008515 -0.14002605 -0.052147176 0.10049224 0.083872005
-0.03928453 0.038958363 -0.016027987 0.10622739 0.039384615 -0.00050427887 -0.0691006 -0.12124077
0.044870608 0.024930092 0.005604154 0.018431054 0.012173145 0.065153345 0.08628696 0.0038339344
-0.13110015 -0.11355371 0.06733331 0.10505468 -0.053854506 -0.057604823 0.07549762 -0.10515125
-0.07589991 -0.10975801 0.0811663 -0.044323936 -0.03722874 0.05394127 -0.03093772 -0.09909278
0.083752386 0.09102129 0.08426778 -0.082948856 0.016900655 0.03338865 0.0063755503 0.04867599
-0.13856097 -0.033413433 -0.00040609928 -0.005669513 -0.0848877 -0.029484827 -0.08719087 -0.08149502
0.047233384 0.08162514 -0.03605176 -0.16166292 -0.009593462 0.06443857 0.008315627 -0.1038847
-0.06343941 -0.07645262 0.011733549 0.004612816 -0.09478322 0.082782336 -0.00049636816 0.18272285
-0.13255799 -0.041801993 0.07582434 -0.033832796 -0.055122584 -0.08897847 -0.06436495 0.037192725
0.15489905 -0.092604436 -0.049521472 0.045221448 -0.046200275 -0.084132195 -0.009652251 0.06371292
-0.020044232 0.07214863 -0.10704508 0.022245308 -0.0069186073 0.09839193 0.11082373 0.07581139
0.03677003 -0.14333825 -0.07805593 -0.0771488 0.061553556 0.11491226 -0.061458427 -0.03112971
-0.04101087 -0.14767 -0.086073786 0.03030193 0.07898268 -0.04835163 -0.0056982804 -0.114237875
-0.06208602 0.0014973467 0.01821627 0.04793779 -0.09733652 0.003944788 -0.0659937 -0.033961695
-0.08281514 0.0011597549 -0.01878407 0.028035676 0.098869205 0.0740209 -0.04383066 -0.09061667
0.070318915 -0.07160294 -0.012246132 0.020531233 -0.112064265 0.08102064 -0.07020305 -0.13829999
-0.006465597 0.101047985 -0.038235873 -0.025248732 -0.13529877 -0.12968652 -0.08450193 -0.017225077
0.07592193 -0.0074623344 0.024457147 0.06488547 0.07009968 0.10023884 0.06906496 -0.13093321
-0.020014796 -0.095938385 -0.019710954 -0.09372765 -0.033968862 0.03974237 0.028003654 -0.09357903
-0.011471429 0.07241906 0.091920935 0.02502386 0.051214784 0.07081512 -0.03872695 -0.12763639

fc2.bias f4 [6]
00000000: c55c 1dbd ccaa d53d 3c7e b23d a200 79bc
00000010: aa74 743c 36ee 123e
-0.03841855 0.104329675 0.087154835 -0.015197905 0.014920393 0.14348683

qnn1.weights f4 [4, 6]
00000000: 0dbb 923f 0edb d83f ad2b 9240 459a c83f
00000010: d067 c340 89c5 9340 66d2 903f fd66 c240
00000020: a90b 2240 3768 f53f 9c21 6b40 9ff5 5840
00000030: 0dbf b040 bbf1 1e40 6e47 7640 6909 8240
00000040: 51c7 5940 e3fe 9a3f 529d 9140 2550 8540
00000050: 957c 2d40 89d1 6c3f 3be6 4b3f 4232 3f3d
1.1463333 1.694185 4.5678315 1.5672079 6.1064224 4.617863 1.1314209 6.075072
2.5319617 1.9172429 3.6739264 3.3899915 5.5233216 2.483504 3.8481097 4.0636487
3.4027903 1.2109035 4.550454 4.1660333 2.710729 0.92507225 0.7964818 0.04667879

qnn2.weights f4 [4, 6]
00000000: aa7b b03f 5f72 ee3e a841 3c40 94f0 c540
00000010: 394a 9c40 7cd6 9740 54d9 6b3f 8248 c040
00000020: 0db7 f73f c6cd 9740 97f4 3d40 3b34 a640
00000030: b9f4 a740 5544 2740 8383 f43f c969 b340
00000040: bab9 9240 eaf6 6a40 4854 a73f 0413 303f
00000050: 844c 1d40 39e4 0140 2e22 8140 7d1b 0840
1.3787739 0.46571633 2.9415073 6.1856174 4.8840604 4.744932 0.9212849 6.008851
1.9352738 4.743869 2.9680536 5.193876 5.2486234 2.6135457 1.9102634 5.606663
4.5851717 3.6713204 1.3072596 0.68779016 2.4577951 2.0295546 4.0354223 2.1266778

out.weight f4 [2, 2]
00000000: 28c6 713e 5e21 6cbe 995a 25bf ed70 d3be
0.23610747 -0.23059604 -0.64591366 -0.41297093

out.bias f4 [2]
00000000: 4f32 ad3d f8a4 01bf
0.08456861 -0.5064235
